Numpy/weights/conv3_w.npz (npz, 3229 bytes, 1 tensors)

arr_0 f4 [1, 32, 5, 5]
000000 38 5c db 3c ac a4 f3 3c 6f 3d f7 3c 56 13 28 3d
       0.026777372 0.029741608 0.030180661 0.041034065
000010 92 54 0d 3d f9 99 47 bc f1 a0 90 bc 49 5a cb bc
       0.03450448 -0.012182706 -0.017654868 -0.024823325
000020 f1 1e 97 ba f1 35 c5 ba 27 73 50 bc 6b bf 2a bd
       -0.0011529607 -0.0015045983 -0.012722767 -0.041686457
000030 50 86 82 bd 27 1d 8b bd c8 6b fe bc ed 23 81 ba
       -0.06373274 -0.0679267 -0.031057253 -0.0009852626
000040 4d db e1 bb 81 f5 a9 bb 11 a0 98 bc 50 67 13 bc
       -0.006892598 -0.005186737 -0.018631013 -0.0089968
000050 68 4a 6e 3c e7 d4 05 3d 43 d9 74 3d a8 13 4a 3d
       0.014544107 0.032673743 0.05977751 0.049335152
000060 58 91 ec 3c 42 c8 c5 3b fa be f2 bc b7 e9 45 3c
       0.028877899 0.0060358355 -0.02963208 0.012079648
000070 30 84 cd 3c 13 75 d4 bc bf 43 9e 3c 15 8d 0c bc
       0.025087446 -0.025934732 0.019319413 -0.008578558
000080 0b 7b 86 3c 75 de 88 bc cc 38 27 3b 89 96 22 bd
       0.016416093 -0.016707638 0.0025516031 -0.039694343
000090 30 ef c0 3c 8c 13 b6 bb 57 b4 e0 3c 63 20 7f bc
       0.023551553 -0.0055565294 0.027429743 -0.015571686
0000a0 5c 01 1d 3c 71 59 db bc ac 1c d1 bc b8 a9 a1 bc
       0.009582844 -0.026776047 -0.025526367 -0.019734249
0000b0 5c 5a 56 3c 0d 99 cf 3c c3 e4 dd 3c ba 58 ef bb
       0.013083067 0.025341535 0.027086621 -0.007304278
0000c0 ed c0 2f bb 86 17 c1 3c 6c 65 62 bc 51 ab 3e bc
       -0.0026817874 0.023570787 -0.013818126 -0.011637525
0000d0 55 34 dc 3c 3b 60 f4 bc 16 fc 8b bc 0a 92 a0 bc
       0.026880423 -0.029831043 -0.017087977 -0.019600887
0000e0 95 15 f4 bb 2e 22 d5 bc 5d bb 06 3c 87 08 ca bc
       -0.007448862 -0.026017275 0.008223382 -0.02466227
0000f0 6e be 7c bc 10 c0 0c bd 3a 9a c0 3c 2a 18 b2 bc
       -0.015426261 -0.034362853 0.023511041 -0.021740038
000100 24 70 8b bb 78 e2 ab bc da ad 9c bb f3 3c e1 bb
       -0.0042553116 -0.020982012 -0.004781467 -0.006873721
000110 91 85 3d bc 7d 5a f6 b9 26 e3 74 3c 7f 44 ed 3c
       -0.011567489 -0.00046988195 0.0149467345 0.028963326
000120 57 37 d5 3c 3d 80 d7 bc 9b 85 86 bb 8c fd 75 bd
       0.026027365 -0.026306266 -0.0041052825 -0.060056254
000130 01 42 e7 bc e2 9d 1e bc b0 07 82 bc f1 8b 0c bc
       -0.028229715 -0.009681197 -0.015872806 -0.0085782865
000140 bd b4 08 3b 6c e0 54 3d c7 a3 63 3d af 0c 22 3b
       0.0020859682 0.051971838 0.055576112 0.0024726798
000150 ff ca 73 3c d1 93 98 3d 22 74 ad 3d 3a 64 c6 3b
       0.014879941 0.07450069 0.08469416 0.0060544284
000160 d1 4a 2c bd f7 3d 8e 3c 2a 54 63 3c fd 6f 8e bc
       -0.042063538 0.017363532 0.013875047 -0.017387385
000170 7e ad ab bd bf ba 84 bd 6f 1f 00 3d 95 e5 48 bc
       -0.083827004 -0.064809315 0.031279977 -0.012261768
000180 e6 2b fa bc 32 0a 23 bd 13 a7 a2 bb 24 07 68 3d
       -0.03053851 -0.039804645 -0.0049637645 0.056647435
000190 35 10 f4 39 2c e5 1b 3b e4 6d 41 3c 07 2b a1 bb
       0.00046551382 0.002378772 0.011805985 -0.0049184593
0001a0 4b 3f 18 3b 73 1b 70 bc e4 ed da 3c 20 2a a2 ba
       0.0023231085 -0.014654982 0.026724763 -0.0012372173
0001b0 97 61 d2 3c 55 94 a8 bc 26 c1 07 bd c9 81 df 39
       0.0256813 -0.020578543 -0.033143185 0.00042630572
0001c0 2f 99 0c bd 1a a9 b5 3c cf 97 bf 3c 2c f0 b6 3c
       -0.034325775 0.02217536 0.023387818 0.02233132
0001d0 cf 1b d3 3c 7e 72 e7 3b d3 0f 22 3c 92 11 d1 bb
       0.025770096 0.007063209 0.009891468 -0.0063802684
0001e0 8d 84 e6 3c 4a 12 11 3c 67 6a 3e bc 74 b7 15 bd
       0.028139377 0.008854458 -0.011622048 -0.036551908
0001f0 7f b1 ed 3a 41 44 88 bb 5c fa 29 3d 7e ab 23 3d
       0.0018134563 -0.004158527 0.041498527 0.03995847
000200 ce 62 bf 3c 16 cb 03 bb 4a b0 90 3c a0 84 30 ba
       0.023362543 -0.0020110062 0.017662186 -0.000673363
000210 df 86 68 3b f5 99 fa 3b 3c 32 99 3a 5c 5f 30 bc
       0.003548078 0.0076477476 0.0011687945 -0.010764923
000220 0b 52 8e bc 23 b9 3e bd 9d 3c 68 bc 57 fd be 3c
       -0.017373106 -0.04656328 -0.014174608 0.023314161
000230 f2 09 ce 3b 33 a6 41 bd 0e a5 09 bd 98 87 34 3c
       0.0062878067 -0.04727764 -0.033604674 0.011018656
000240 32 66 8e 3c 61 9a 48 3c e8 1f 9b bc 96 b3 36 bb
       0.017382715 0.012243838 -0.018936113 -0.0027878038
000250 3a e6 e4 3c a6 78 25 3c 7c dd cf 3b 26 5b 9c bb
       0.027941812 0.010099566 0.0063435417 -0.004771608
000260 98 64 f2 3b 44 7a 4e 3a 1d 54 95 bb 71 24 01 3c
       0.0073972456 0.00078764954 -0.004557146 0.007882223
000270 ba 32 91 3b ea 31 f0 bb 43 4a b2 3c 5f 47 06 3d
       0.004431096 -0.007330169 0.021763926 0.03278291
000280 b6 5f 9f 3c 76 0a 4b bc ee 48 f4 bc dd a2 dd bc
       0.019454818 -0.012392631 -0.029819932 -0.027055198
000290 74 0e 89 bc 8b 18 e9 bb 41 0d 7b 3c b3 5f 2f 3c
       -0.016730525 -0.0071135215 0.015322984 0.010703969
0002a0 8e d2 01 3d a0 3d 1d bd f6 b3 ca bc d4 0a fb 3c
       0.03169494 -0.03838885 -0.024744015 0.030644812
0002b0 e0 1c ba bc e1 26 cc 3c f3 be f0 3a bc b5 d2 bb
       -0.022718847 0.024920883 0.0018367454 -0.006430356
0002c0 91 d2 bd 3c ce b0 d7 3c 0b c0 5e bc f4 99 17 ba
       0.023171695 0.026329424 -0.013595591 -0.00057831337
0002d0 da 1a f7 3c 10 b0 d9 3c e7 13 4b 3c 09 19 ad bc
       0.030164171 0.026573211 0.012394882 -0.021130102
0002e0 66 22 c2 bc 2c f9 b1 3c 9e 86 8a 3c 6d 22 c8 bb
       -0.023698043 0.02172526 0.016909894 -0.0061076195
0002f0 9d 24 0b 3d c0 20 c7 3c 62 0f 26 bc 6a b9 54 3c
       0.033970464 0.024307609 -0.0101355035 0.012983659
000300 41 86 07 3d 3b ea aa 3c 36 f9 86 bc 4a be 0e bd
       0.03308702 0.020863643 -0.016476255 -0.034849443
000310 65 f1 1b 3c 27 2c 52 3c 99 03 0b bd da d1 e0 3b
       0.009518002 0.01282791 -0.033938978 0.0068609538
000320 92 a0 b2 bc c8 3a 68 3c 7a 87 8d bc 17 8a dc bc
       -0.021805082 0.014174171 -0.017276514 -0.026921315
000330 95 3a 0b 3d 5e 32 ad 3c 53 5d 6a bc ca 03 d1 bc
       0.033991415 0.021142181 -0.014304477 -0.025514502
000340 40 bc c3 3c 1e f2 b4 bc 9a d3 2b bc e3 26 81 bc
       0.023893476 -0.022088107 -0.010487461 -0.015765613
000350 1d 7a 2c 3c c5 89 14 bb 11 25 57 3c 2a 30 a2 bc
       0.010527161 -0.0022665125 0.013131396 -0.019798357
000360 9a ba d5 3c d1 b1 85 3b 87 1b c8 bc 1a aa d3 bc
       0.026089955 0.0040800353 -0.024427189 -0.025837947
000370 5a f3 af 3c cb 43 7a bc 8d 0e 22 3c 43 9c 6b 3a
       0.021478344 -0.015274952 0.0098911645 0.00089878234
000380 ba 95 86 bc 40 00 07 3d 33 ac 2a bc d9 4b 62 3c
       -0.016428817 0.032959223 -0.010417032 0.013812029
000390 e8 b7 96 3c 30 97 6d 3b e4 bb 03 3d 01 4a bb bc
       0.01839824 0.0036253445 0.03216161 -0.022862436
0003a0 1f 23 b1 bb f1 21 f0 bb 15 db 31 3c 77 d8 88 bc
       -0.005405798 -0.007328265 0.010855456 -0.016704781
0003b0 73 ed b5 bc 7a 6d 0b bd 55 91 8a 3c f9 90 4f 3c
       -0.022207951 -0.03403995 0.016915003 0.0126688415
0003c0 bb db 03 bd 3f 7b ce 3b ab 37 d7 bc 69 99 ef bc
       -0.032191973 0.006301313 -0.026271662 -0.029247956
0003d0 2d 76 a3 3c 52 80 96 bc 9e 39 f2 3c 97 01 fd 3c
       0.019953812 -0.018371735 0.02956849 0.030884547
0003e0 56 cd 4c bb 6c 05 dc 3b 42 84 ff bc 58 c6 7c bc
       -0.003125032 0.0067145135 -0.031190995 -0.015428148
0003f0 b4 5d 16 bb f0 44 ed 3b d0 84 66 3c d6 e8 99 3c
       -0.0022944035 0.007240884 0.014069751 0.018787783
