Numpy/weights/conv2_w.npz (npz, 190938 bytes, 1 tensors)

arr_0 f4 [32, 64, 5, 5]
0.009850929 0.032341216 -0.004516262 -0.0055771708 -0.18682982 0.0036830676 0.02104841 0.064527646
0.010794876 -0.04021116 -0.02060984 -0.022778822 0.09331956 -0.0270912 -0.098142676 -0.05088585
-0.095472455 -0.06220518 -0.046652127 0.06048666 0.016602939 0.017541016 -0.058943737 0.027369926
-0.005932345 -0.039518468 0.07513389 0.055744644 0.025577292 -0.019290632 0.043228474 0.07982571
0.082816586 0.058034685 0.022202667 0.09051563 0.017273925 0.00998065 -0.062299572 -0.009871743
0.08883825 0.0065963217 -0.050822694 0.051193416 0.12213985 -0.16346762 -0.1507013 -0.21228947
-0.13610385 -0.16575818 -0.2790135 -0.33286917 -0.38649687 -0.21336931 -0.14191566 0.030543618
-0.056264296 -0.097566284 0.041435868 0.051832672 0.13353738 0.048677765 0.01012278 0.06779632
0.034052987 0.12981819 0.17170843 0.15415756 0.15029882 0.108307965 -0.019823365 0.033640876
0.0106846215 -0.065708145 -0.0909812 -0.102398925 -0.08641274 -0.09020304 -0.11011111 -0.14152978
0.041347373 0.019558994 0.058764156 0.05466653 0.06578276 0.013442255 -0.12387914 -0.0824083
0.034803994 0.025597768 0.0022957993 -0.0035724875 -0.00821276 0.033997864 0.008745596 0.024179142
0.058330227 0.07532423 0.041245345 0.019696727 0.077030614 0.01388188 0.08560601 0.073022895
0.034807265 -0.06875003 -0.044743475 0.026586287 -0.0037003106 -0.07118442 0.05430736 0.008889462
0.07732964 0.029509408 -0.076219015 -0.033964146 -0.0109453285 -0.027060183 0.02901113 0.0261331
-0.09081844 -0.06844347 -0.08213285 -0.07485608 -0.03211475 0.25671136 0.13370353 -0.07056521
0.023754748 -0.08725472 0.0043769614 0.014037064 -0.073838174 -0.1454357 -0.109880395 -0.051516633
0.05132575 0.072833255 -0.07478786 0.031183913 0.012812324 0.091176696 0.103585385 -0.026490657
-0.022041269 0.0022290275 -0.057998523 -0.09472524 -0.095456444 -0.124124095 -0.02234707 0.03057255
0.024060862 0.030274356 -0.020395987 0.034844972 0.027431803 -0.001991469 -0.04076833 -0.12870555
0.0052879727 -0.031422865 -0.06452099 -0.07751378 -0.14068519 0.050334334 0.09462546 -0.011206428
0.010796099 0.182394 0.03431638 0.08811831 0.015879227 -0.048224535 0.016698848 -0.006979627
0.02968577 0.11467528 0.06037342 -0.01950722 0.16248032 0.036078442 0.03779749 0.019957205
-0.00185566 0.07239484 0.059495147 -0.03174696 -0.0048868908 0.09069009 0.11376728 0.13134074
0.08163773 0.051924113 0.13547409 0.40303865 0.2736834 0.10314731 -0.09725558 0.03265042
-0.068116285 -0.0093888035 -0.020482177 0.05429118 0.046513245 0.035017133 0.0031215155 -0.014199898
0.031636924 0.06018445 -0.03812851 -0.101916686 -0.12505949 -0.09805376 -0.025917951 0.077182464
-0.052856527 -0.065727904 -0.082296096 -0.0017256332 0.036596075 0.10715766 0.09422897 -0.016630758
-0.0061047734 0.027088556 0.0045956946 0.012167081 0.03868 0.0031172417 -0.08622487 -0.05206928
0.01746652 0.005623981 -0.06692866 -0.09753353 -0.12152385 -0.081655666 -0.045226272 -0.04374121
-0.04325646 -0.03656269 0.010799195 0.02185602 0.0269301 -0.06263649 -0.019400688 0.016685558
0.051773984 0.080273606 -0.045233496 -0.05948196 -0.027653692 0.0009441383 0.02905111 -0.008623854
00000000: ca65 213c 3978 043d 27fd 93bb b3c0 b6bb
00000010: 5150 3fbe 9f5f 713b b76d ac3c 1227 843d
00000020: fedc 303c 75b4 24bd f8d5 a8bc a79a babc
00000030: 531e bf3d 5dee ddbc 07ff c8bd ae6d 50bd
00000040: 1087 c3bd dcca 7ebd 4d16 3fbd dcc0 773d
00000050: e302 883c 2db2 8f3c fd6e 71bd e536 e03c
00000060: 1e64 c2bb 1ede 21bd ccdf 993d 7f54 643d
00000070: 7887 d13c 6307 9ebc 5710 313d a97b a33d
00000080: be9b a93d c7b5 6d3d 5ee2 b53c 4260 b93d
00000090: 0c82 8d3c e185 233c d62d 7fbd 17bd 21bc
000000a0: d4f0 b53d f525 d83b 752b 50bd 30b0 513d
000000b0: 7524 fa3d 0e64 27be 7151 1abe 6962 59be
000000c0: cf5e 0bbe 83bc 29be dcda 8ebe d46d aabe
000000d0: ebe2 c5be 7c7d 5abe 5752 11be 9c36 fa3c
000000e0: 6475 66bd d5d0 c7bd a8b8 293d 7f4e 543d
000000f0: 06be 083e 5662 473d 04da 253c ccd8 8a3d
00000100: 257b 0b3d 0fef 043e 56d4 2f3e 7bdb 1d3e
00000110: efe7 193e 91d0 dd3d 9c64 a2bc 04cb 093d
00000120: 8d0e 2f3c fe91 86bd 5a54 babd 87b6 d1bd
00000130: 2af9 b0bd 5fbc b8bd ef81 e1bd 2fed 10be
00000140: dd5b 293d 2f3a a03c afb2 703d 03ea 5f3d
00000150: 1db9 863d e73c 5c3c 59b4 fdbd afc5 a8bd
00000160: a28e 0e3d 69b2 d13c 1f75 163b 6520 6abb
00000170: d08e 06bc 5841 0b3d b049 0f3c 5613 c63c
00000180: adeb 6e3d 9743 9a3d e1f0 283d 085b a13c
00000190: 3ac2 9d3d d370 633c 3452 af3d 078d 953d
000001a0: 1092 0e3d d1cc 8cbd ef44 37bd 7ccb d93c
000001b0: e980 72bb 23c9 91bd 6571 5e3d 1ba5 113c
000001c0: 015f 9e3d b7bd f13c b718 9cbd fd1d 0bbd
000001d0: 0954 33bc 51ad ddbc c0a8 ed3c 1515 d63c
000001e0: 05ff b9bd 172c 8cbd 4535 a8bd 254e 99bd
000001f0: c28a 03bd ac6f 833e 94e9 083e 7e84 90bd
00000200: 5199 c23c 9ab2 b2bd 9d6c 8f3b b7fb 653c
00000210: 7838 97bd 19ed 14be f908 e1bd 1b03 53bd
00000220: f33a 523d 9a29 953d 612a 99bd 6875 ff3c
00000230: c8ea 513c d9ba ba3d 9324 d43d ef02 d9bc
00000240: e48f b4bc e014 123b dc8f 6dbd 4eff c1bd
00000250: ab7e c3bd c634 febd 3411 b7bc 4973 fa3c
00000260: 491b c53c ed01 f83c 7c15 a7bc 9ab9 0e3d
00000270: a9b8 e03c 4e83 02bb b1fc 26bd 63cb 03be
00000280: bb46 ad3b 43b5 00bd 9523 84bd 8bbf 9ebd
00000290: c70f 10be 602b 4e3d feca c13d 2a9b 37bc
000002a0: 1fe2 303c 7ec5 3a3e 558f 0c3d 5f77 b43d
000002b0: 2715 823c 1787 45bd 06cc 883c 5bb5 e4bb
000002c0: 922f f33c e0da ea3d 1f4a 773d 9bcd 9fbc
000002d0: 3e61 263e fdc6 133d 8ad1 1a3d 4b7d a33c
000002e0: 9e39 f3ba bf43 943d 2fb1 733d 1a09 02bd
000002f0: 3622 a0bb babb b93d d2fe e83d 307e 063e
00000300: af31 a73d 61ae 543d b8b9 0a3e 155b ce3e
00000310: 3b20 8c3e e63e d33d ef2d c7bd 72bc 053d
00000320: 8d80 8bbd 7fd3 19bc 3dca a7bc 6e60 5e3d
00000330: ac84 3e3d 206e 0f3d 5792 4c3b b0a6 68bc
00000340: b895 013d f883 763d a42c 1cbd b2b9 d0bd
00000350: 980f 00be 69d0 c8bd e251 d4bc d711 9e3d
00000360: 1680 58bd 5a9c 86bd db8a a8bd a42e e2ba
00000370: c4e5 153d 7a75 db3d 1efb c03d 3a3d 88bc
00000380: 8d0a c8bb d2e8 dd3c 7b97 963b 7058 473c
00000390: eb6e 1e3d a34a 4c3b aa96 b0bd 9946 55bd
000003a0: f315 8f3c 5f49 b83b e511 89bd a9bf c7bd
000003b0: 7fe1 f8bd 163b a7bd 2f3f 39bd fc29 33bd
000003c0: b02d 31bd c2c2 15bd 1bef 303c 650b b33c
000003d0: 839c dc3c 8f47 80bd 31ee 9ebc 27b0 883c
000003e0: f510 543d 7d66 a43d c246 39bd 5ba3 73bd
000003f0: ff89 e2bc 0c80 773a 98fc ed3c 114b 0dbc
