Numpy/weights/conv1_w.npz (npz, 19492 bytes, 1 tensors)

arr_0 f4 [64, 1, 9, 9]
00000000: 3d65 6dbd d67a 0c3e bba1 543d a4aa f53d
00000010: c2ef 7bbd 1695 883d bd72 90bd dec9 1fbe
00000020: d275 0ebc 93d9 c13d 1c70 a73d 75d5 b13d
00000030: ab3b c2bd 195f aebd 4987 76bd a623 2ebc
00000040: b372 31be 430f 983d 4265 08bd 579a 713d
00000050: f6fc 9d3c 4243 3ebd c960 12bb 0682 e13d
00000060: 73b6 37bc 4540 31bd de39 babd ca9c 293c
00000070: 3183 423c f882 71be a69c 1c3d 6c2f 903d
00000080: f23d ae3d 0f9a f43d 7d39 823d 822e 85bd
00000090: e9e1 e9bd c74c 84bd 7889 09be 6baa a13d
000000a0: eb5c b23d 270c 1bbc 2372 803d 0b23 083e
000000b0: 0bad 96bb a259 e33c 445c 273c de83 a63c
000000c0: 07be 403e e834 ae3d 7e87 9dbd 14dd 5bbd
000000d0: 4961 8cbb ac51 e83c 0207 febb 2530 f3bd
000000e0: e2b5 e6bd 9ebf 113e 5f08 d4bb 78cd 5cbe
000000f0: 77a5 12bd a65a 113e 8850 09bd 45f2 9ebc
00000100: 1d56 6bbd fde1 8bbd 56a0 9cbc 1679 8bbb
00000110: 54f1 28be 79ec 7d3d 82f7 3c3e 84ec 093e
00000120: 9279 7e3d a16b 85bd 915a 2abd 37ba 11bd
00000130: e498 7a3d 8f7c c2bd f54c 153d d5af c73d
00000140: 3fdb dbbc 0b4e 973c b490 163c 3213 04bb
00000150: 2f5b cbbd 8ab8 81bd 6c2a 55bd 9b68 cf3d
00000160: d700 ee3c bea3 9fbd 435e 30bd 9ca4 df3d
00000170: 2587 943d 9563 603d 58d2 24bd 065f 353d
00000180: 085c fc3d f262 a43d 6707 163d ccf0 2abd
00000190: cc6a 083d 9c5d 01be 0ade 4dbd 16eb 8cbd
000001a0: 4eb4 3cbc fe53 5cbd 64b2 81bd 1c35 ec3b
000001b0: f646 f73c 71ff 19bd c947 b33d 42c7 2abd
000001c0: c9a9 093e 3d4f 793d 4921 6d3b 2ac8 8d3b
000001d0: f59e 9fbd 793e 40bd 2433 dbbc 5202 a93d
000001e0: 9d22 bebc 80cf bf3d c5f5 0e3e 22cd 64bd
000001f0: b0cb b83d bece 70bd 8ef3 bd3c a70e 8d3c
00000200: ec8b 783d c6b7 0a3e 3cf0 6d3b 2fae 093d
00000210: c2dd 26bb 4e66 76bd 1ca9 1f3c ce79 bdbd
00000220: 0f3b d0bc ec67 8abd 9484 8fbd 561f 03be
00000230: 0be1 f8bd 6736 0fbe b8cc 08bd 7b9e 543d
00000240: 3389 69bc 9ad0 00be a150 2cbe 4989 8cbd
00000250: 1763 2fbe 3b82 58be 14e7 44be 356a 01be
00000260: 9544 85bd aa79 1f3e 6e1d 843d 2fee 013e
00000270: f589 c13d 5524 873e f067 103e dc76 723e
00000280: ff21 e63d 901d 143e 310c d63c d3d7 0a3e
00000290: 2739 3b3e 0bff a03e 57fd 803e 616e 743e
000002a0: cd8f fc3d 85bf 143d 141b 8b3b 07ae 71bd
000002b0: 3b3d b9bd 4e54 29be 8f2f 7cbe 5112 64be
000002c0: a95a 60be c58f ddbd 959a 85bc 1556 4cbd
000002d0: 3f2e 363d 8378 963b 664d 01bd b2f0 73be
000002e0: 5afb 5fbe dceb d3bd 7fbe 8abd 6dd6 6c3c
000002f0: 4e92 5f3d 40c7 10bd b105 c03b 1216 21bd
00000300: 5019 ce3d f140 2c3e 86a6 8e3c 2a6d 803d
00000310: 0bc0 ba3d 644f 5bbc 04a3 383d a515 d13c
00000320: 115c d8bc 9ad3 c43c c49a a33d 70a7 733b
00000330: 9e75 63bd 01c0 b5bc e4a7 bdbc a7a4 e2bc
00000340: c948 a33b a2bc cb3d 18a6 ac3c 5ec0 893d
00000350: d54a c93d 7f66 3dbd 8f6f 1d3c 825c 48bd
00000360: 379a d13c 16b6 7ebd 441c a4bb 38b6 f53b
00000370: e2b6 a8bd 7494 bbbd 7ebe 0b3d cbaf 38bd
00000380: 7a01 653d 55d4 12bd eb52 993c b473 82bd
00000390: aff2 513d 7db6 0b3d 4582 58bb b1e1 3cbb
000003a0: 62e3 53bd 26ee 653d 9f30 d03c abba 0fbd
000003b0: 271b 233d 83a1 c6bc ab68 9dbd b511 593d
000003c0: e4d9 2a3d 4afa 02ba b72f 2cbd 7579 253d
000003d0: 850a cf3d c682 2d3d ad00 d9bd b8fb 7bbd
000003e0: 99af b03d 3246 b5bc e4ef 173b fc13 8bbd
000003f0: bfa5 453d f8d9 cabd 0f4c 8dbd 2ba5 58bd
-0.057957876 0.13718733 0.05191205 0.11995438 -0.061507948 0.06669061 -0.070531346 -0.1560435
-0.008695083 0.09465327 0.0817568 0.08683292 -0.09484037 -0.08514232 -0.06018761 -0.010628616
-0.1732891 0.07424786 -0.033299692 0.05898508 0.01928566 -0.04645086 -0.002233552 0.11011128
-0.011212933 -0.043274183 -0.090930685 0.010352323 0.011872099 -0.23585117 0.03823533 0.07040295
0.08507909 0.11943447 0.06358621 -0.06503011 -0.11420042 -0.064599566 -0.13431346 0.07893833
0.08709129 -0.009463347 0.0627177 0.13294618 -0.004598265 0.027752701 0.010214869 0.020326551
0.1882249 0.08506185 -0.07691859 -0.053677633 -0.004284058 0.028359257 -0.0077523002 -0.11874417
-0.1126516 0.14233252 -0.0064707245 -0.21562755 -0.03580233 0.14194736 -0.033524066 -0.019402632
-0.05745517 -0.06830213 -0.019119423 -0.004256378 -0.1649831 0.061993096 0.18453792 0.1346913
0.062127657 -0.06514669 -0.041590277 -0.03557798 0.061180964 -0.09496414 0.036450345 0.09750334
-0.026837943 0.018469831 0.009189773 -0.0020153043 -0.09929501 -0.06334026 -0.05204241 0.10127374
0.029053135 -0.07794903 -0.043058645 0.109200686 0.07252339 0.05478247 -0.040239662 0.044280075
0.12322241 0.08026685 0.036628153 -0.041733548 0.033304974 -0.12633365 -0.05026058 -0.068807766
-0.011517597 -0.05379104 -0.063328534 0.0072084796 0.030185204 -0.037597124 0.08753926 -0.041693933
0.13443674 0.060866583 0.003618317 0.00432684 -0.077939905 -0.04693458 -0.026757784 0.08252396
-0.023209864 0.09365749 0.13960941 -0.055859692 0.09023225 -0.058790915 0.023187425 0.0172189
0.060680315 0.13546667 0.003630652 0.03361338 -0.0025461768 -0.06015616 0.009744909 -0.09251748
-0.025418786 -0.06758103 -0.07007709 -0.12804922 -0.121522985 -0.13985597 -0.03339836 0.05190895
-0.014253902 -0.12579575 -0.16827632 -0.068621226 -0.17127644 -0.21143429 -0.19228774 -0.12638171
-0.065072216 0.15573755 0.06450926 0.12688516 0.09450141 0.26394907 0.14102149 0.23678154
0.11236953 0.14464402 0.02612886 0.13558893 0.1828352 0.31444582 0.25193283 0.23870231
0.12332115 0.03631546 0.0042451713 -0.059003856 -0.09044882 -0.16536066 -0.24627517 -0.22272612
-0.21909584 -0.108184375 -0.016309062 -0.04988678 0.044477697 0.004592003 -0.031567954 -0.23822287
-0.21873227 -0.10347721 -0.067746155 0.01445542 0.054582886 -0.03534627 0.0058600535 -0.03932769
0.10063422 0.16821648 0.017413389 0.062708214 0.091186605 -0.013385627 0.04507734 0.025523016
-0.026411088 0.02402668 0.079885036 0.0037178658 -0.05553209 -0.022186281 -0.023151346 -0.027666403
0.004983042 0.09948088 0.021075293 0.06726144 0.09828726 -0.046240326 0.009609117 -0.048916347
0.02558623 -0.06218537 -0.0050082523 0.007498529 -0.08238007 -0.091591746 0.034117214 -0.045089524
0.05590961 -0.035847027 0.018716296 -0.06369725 0.05125683 0.03410958 -0.003303663 -0.0028821046
-0.05173052 0.05613532 0.02541381 -0.03509013 0.039820816 -0.024246937 -0.076859795 0.052995402
0.041711703 -0.00049964024 -0.042037692 0.040399034 0.10109428 0.042361043 -0.10595832 -0.061519355
0.086272426 -0.022128198 0.0023183757 -0.06790921 0.04825377 -0.099048555 -0.06899273 -0.05289189
