Numpy/weights/conv1_b.npz (npz, 475 bytes, 1 tensors)

arr_0 f4 [64]
000000 d4 df 14 bd fc 6c d1 bb d9 27 b3 3c f8 02 e1 bb
       -0.03634627 -0.006391166 0.021869587 -0.006866809
000010 c6 6d 84 3d 55 58 95 3c 4d 7a 72 3d b8 bc 9b bb
       0.0646625 0.018230597 0.059198666 -0.0047527216
000020 73 87 09 3e d5 53 80 3b 70 f9 92 bc 32 7c 87 3c
       0.13430576 0.0039162436 -0.017941207 0.016538713
000030 f6 6e 86 be 39 72 31 3e 0a 6d ae 3d 1c b9 f7 3a
       -0.2625653 0.17328729 0.08516891 0.0018899771
000040 81 50 d2 bb 82 cc 0e bd fc 39 01 3e 0d d1 9c 3c
       -0.006418288 -0.034863003 0.12619776 0.019142652
000050 b7 2e f7 3c 9a 3e 74 3c 19 a3 fe bc bb 9a 4e 3b
       0.030173643 0.0149075035 -0.03108363 0.0031525332
000060 27 e2 38 bc da a9 d3 3c c5 5d fb 39 a0 9b 8c bc
       -0.011284388 0.025837827 0.00047944314 -0.017164052
000070 81 c4 a1 3b 61 d7 3a 3c 4f 08 a7 3e 71 ef 86 3c
       0.004936755 0.011403889 0.32623526 0.016471596
000080 f1 2d 21 3d 6c 06 a0 ba 24 1e 8e 3c f0 bb 89 bd
       0.039350454 -0.0012208945 0.017348357 -0.06725299
000090 3d c3 18 3b 0e 61 94 3d ad fb d8 3c bc 75 88 3d
       0.002330973 0.07245074 0.026487196 0.06663081
0000a0 d8 fb a2 bb 9f 65 a4 bb 72 8a c9 3d d7 8a 0d 3d
       -0.00497387 -0.005016997 0.098408595 0.034556236
0000b0 8f 2c bd 3c df 7e 45 bb a3 a0 23 bc fe 67 c9 bb
       0.023092536 -0.0030135436 -0.009987029 -0.00614643
0000c0 d9 ac 52 3c 7b 45 cf bc 2d ee 5b bb fc dd 25 3d
       0.012858593 -0.025301686 -0.0033558712 0.040494904
0000d0 da 0e a7 3c d2 9b 7d bc 4e 01 e8 3c 02 81 cb 3c
       0.020392824 -0.015479045 0.028320935 0.02484179
0000e0 0b 89 a5 3c 21 48 e9 bc 39 bc 32 3c 33 0b bb 3c
       0.020206949 -0.028476777 0.010909134 0.022832489
0000f0 87 32 22 3d 84 27 c5 bd 91 25 97 bc e3 2d 76 bd
       0.039598968 -0.09626678 -0.01845053 -0.060102355
